…
        "        activation='relu', \n",
        "        padding='same'\n",
        "    )\n",
        ")\n",
        "autoencoder.compile(optimizer='adam', loss='mse')\n",
        "autoencoder.summary()"
      ],
      "execution_count": 28,
      "outputs": [
        {
          "output_type": "stream",
          "text": [
            "_________________________________________________________________\n",
            "Layer (type)                 Output Shape              Param #   \n",
            "=================================================================\n",
            "conv2d_5 (Conv2D)            (None, 224, 224, 32)      320       \n",
            "_________________________________________________________________\n",
            "conv2d_6 (Conv2D)            (None, 112, 112, 64)      18496     \n",
            "_________________________________________________________________\n",
            "conv2d_7 (Conv2D)            (None, 56, 56, 128)       73856     \n",
            "_________________________________________________________________\n",
            "conv2d_8 (Conv2D)            (None, 28, 28, 256)       295168    \n",
            "_________________________________________________________________\n",
            "conv2d_transpose_3 (Conv2DTr (None, 56, 56, 128)       295040    \n",
            "_________________________________________________________________\n",
            "conv2d_transpose_4 (Conv2DTr (None, 112, 112, 64)      73792     \n",
            "_________________________________________________________________\n",
            "conv2d_transpose_5 (Conv2DTr (None, 224, 224, 32)      18464     \n",
            "_________________________________________________________________\n",
            "conv2d_9 (Conv2D)            (None, 224, 224, 2)       66        \n",
            "=================================================================\n",
            "Total params: 775,202\n",
            "Trainable params: 775,202\n",
            "Non-trainable params: 0\n",
            "_________________________________________________________________\n"
          ],
          "name": "stdout"
        }
      ]
    },
    {
      "metadata": {
        "id": "rNpJ2uqeFwqb",
…
